…
          "height": 459
        },
        "outputId": "47f4acf9-bde3-40a6-ab0b-32cb29ac4eb5"
      },
      "source": [
        "model.summary()"
      ],
      "execution_count": 23,
      "outputs": [
        {
          "output_type": "stream",
          "text": [
            "Model: \"sequential_1\"\n",
            "_________________________________________________________________\n",
            "Layer (type)                 Output Shape              Param #   \n",
            "=================================================================\n",
            "conv2d_1 (Conv2D)            (None, 28, 28, 4)         104       \n",
            "_________________________________________________________________\n",
            "max_pooling2d_1 (MaxPooling2 (None, 14, 14, 4)         0         \n",
            "_________________________________________________________________\n",
            "conv2d_2 (Conv2D)            (None, 14, 14, 8)         808       \n",
            "_________________________________________________________________\n",
            "max_pooling2d_2 (MaxPooling2 (None, 7, 7, 8)           0         \n",
            "_________________________________________________________________\n",
            "conv2d_3 (Conv2D)            (None, 7, 7, 16)          3216      \n",
            "_________________________________________________________________\n",
            "max_pooling2d_3 (MaxPooling2 (None, 3, 3, 16)          0         \n",
            "_________________________________________________________________\n",
            "flatten_1 (Flatten)          (None, 144)               0         \n",
            "_________________________________________________________________\n",
            "dense_1 (Dense)              (None, 17)                2465      \n",
            "_________________________________________________________________\n",
            "dense_2 (Dense)              (None, 10)                180       \n",
            "=================================================================\n",
            "Total params: 6,773\n",
            "Trainable params: 6,773\n",
            "Non-trainable params: 0\n",
            "_________________________________________________________________\n"
          ],
          "name": "stdout"
        }
      ]
    },
    {
      "cell_type": "code",
      "metadata": {
…
